model/mnist_model.pth (torch, 440112 bytes, 6 tensors)

fc1.weight f4 [128, 784]
0	0xbc9c9d01	-0.019117834
1	0x3d04849a	0.03235302
2	0x3d02e20a	0.03195385
3	0xbbadbfcc	-0.005302405
4	0x3ca91ef4	0.020644642
5	0xba7e3cb8	-0.0009698379
6	0xbcab556a	-0.020914752
7	0x3a34a0f0	0.00068904366
8	0xbc1692ae	-0.009190245
9	0x3c99d188	0.01877667
10	0xbcab8b9d	-0.020940596
11	0xbb1a41be	-0.002353772
12	0xbc9c7fcb	-0.019103905
13	0xbcacc0a4	-0.021087952
14	0xbc35090b	-0.011049519
15	0xbc4b6e03	-0.012416366
16	0x3c5968c4	0.013269607
17	0xbb2cde28	-0.0026377533
18	0xbce2cf4e	-0.027686741
19	0x3ce6197b	0.028088322
20	0xbd1083d6	-0.03528198
21	0x3ce05c18	0.027387664
22	0xbad5b80a	-0.0016305458
23	0xbd118abd	-0.0355327
24	0x3cd3606f	0.025802819
25	0x3c61a5eb	0.013772468
26	0xbbb2253c	-0.0054365676
27	0xbcbf1bab	-0.023328623
28	0x3d0d6454	0.03451951
29	0x3c1ff0d6	0.00976201
30	0x3c035393	0.008015531
31	0xbc3864f8	-0.011254542
32	0x3d10e576	0.03537508
33	0xbc39e98f	-0.011347189
34	0xbc4ff778	-0.0126932785
35	0x3ba5c9e1	0.005059466
36	0x3bfceb43	0.007718475
37	0x3cd6e32d	0.026231373
38	0x3af682e6	0.0018807321
39	0x3d0d2d61	0.034467105
40	0x3d15739e	0.036487214
41	0xbc61c6f5	-0.013780345
42	0xbc755fd9	-0.014976465
43	0x3d063fd9	0.032775734
44	0x3cecfdc1	0.028929593
45	0x3ba149f9	0.0049221483
46	0x3be21884	0.006899895
47	0xbb97a5c8	-0.004627917
48	0x3c891eee	0.016738381
49	0x39f82b0a	0.00047334313
50	0x3b1920a5	0.0023365405
51	0x3c1caf2a	0.009563247
52	0x3ac08dd2	0.0014690703
53	0xbc88432b	-0.01663359
54	0xbcc5bc04	-0.024137504
55	0x3bcd8cbe	0.0062728813
56	0xbc625333	-0.013813782
57	0xbcc50c43	-0.024053698
58	0xbc5c1b53	-0.013434249
59	0x3c775804	0.015096668
60	0x3cf32712	0.029681716
61	0xbba07c42	-0.004897625
62	0x3c889cda	0.016676355
63	0x3d510644	0.051031366
64	0x3d26b8cc	0.04070358
65	0x3d0a12fc	0.03370951
66	0x3dd5c4f1	0.10437954
67	0x3dc1ff70	0.09472549
68	0x3d340834	0.043953136
69	0x3d821fcd	0.06353722
70	0x3e0109b0	0.12601352
71	0x3e30c8fc	0.1726417
72	0x3e0da571	0.13832642
73	0x3e0003a2	0.12501386
74	0x3dd41451	0.103554375
75	0x3da0cb45	0.078512706
76	0x3b2d1862	0.0026412238
77	0x3bbed5ee	0.0058238422
78	0x3c7440f1	0.014908061
79	0xbc3942fe	-0.011307476
80	0x3d02b26c	0.031908438
81	0x3c5660bd	0.013084588
82	0xbcca40ea	-0.024689157
83	0xbc77989b	-0.015112068
84	0x3c896831	0.016773315
85	0xbc845766	-0.016154956
86	0x3c31f784	0.010862235
87	0x3ccc9912	0.024975333
88	0xbc630d90	-0.013858214
89	0x3c8d6e9c	0.017264657
90	0x3dad8b2e	0.08473812
91	0x3b4f85fe	0.003166556
92	0x3d9061ab	0.07049879
93	0x3e5d1a04	0.21591955
94	0x3e153295	0.14570077
95	0x3a17ea21	0.0005795081
96	0xbd19860c	-0.037481353
97	0x3e39cfad	0.18145628
98	0x3e5c07f2	0.21487406
99	0x3e0f9df2	0.14025095
100	0x3dec9a38	0.115528524
101	0x3d086fc2	0.033309706
102	0x3d80b8e0	0.06285262
103	0xbc68cd53	-0.014209109
104	0xbd0b84f0	-0.034062326
105	0xbce94514	-0.028475322
106	0x3bba28ab	0.0056811175
107	0xbcafe0c4	-0.021469481
108	0x3d1c3f16	0.0381461
109	0x3c878189	0.01654126
110	0x3a7ebe80	0.0009717718
111	0xbcb8fb16	-0.022580665
112	0xbc882d59	-0.016623186
113	0x3c4e325a	0.012585247
114	0x3b048345	0.0020219844
115	0xbcbff3dc	-0.02343171
116	0xbc834ad9	-0.016026901
117	0x3cba2d9b	0.022726825
118	0x3d947052	0.07247986
119	0x3cb927e5	0.022602031
120	0x3dba99f1	0.09111393
121	0x3e140180	0.14453697
122	0x3e1df404	0.15425116
123	0xbd7f0166	-0.062257193
124	0xbd8a8581	-0.06763745
125	0x3d2feb27	0.042948868
126	0x3e84eece	0.25963444
127	0x3e96bb9b	0.29440007
128	0x3e744225	0.23853357
129	0x3da85069	0.08218462
130	0xbc3caaf3	-0.011515367
131	0xbd9c883a	-0.07643171
132	0xbe241c20	-0.16026354
133	0xbe00af3a	-0.12566844
134	0xbe52cb50	-0.2058537
135	0xbe21f7d9	-0.15817203
136	0xbd4b19bb	-0.049585085
137	0xbb2dba2b	-0.002650867
138	0x3d1c508f	0.038162764
139	0x3af06e2a	0.0018343378
140	0xbcdf5cfe	-0.027266022
141	0xbcc204b2	-0.02368388
142	0xbc18543a	-0.009297425
143	0xbd328fe5	-0.04359426
144	0x3d1eef72	0.03880257
145	0xbd3c4d19	-0.045971964
146	0xbdf8c5f7	-0.12147134
147	0xbe0ef7c3	-0.13961701
148	0x3cc6d30e	0.02427056
149	0xbc386a43	-0.0112558035
150	0x3b8a1690	0.0042141154
151	0xbcdf136f	-0.027230946
152	0xbdea55a8	-0.11442119
153	0x3e430b11	0.1904719
154	0x3e46574c	0.19369239
155	0x3de83f1f	0.113401644
156	0x3e794eef	0.24346517
157	0x3e2fa8af	0.17154191
158	0xbd39ba8c	-0.04534392
159	0xbdfa5693	-0.12223544
160	0xbe243657	-0.16036354
161	0xbe7fc024	-0.2497564
162	0xbe7531e9	-0.2394482
163	0xbe638fe5	-0.2222286
164	0xbd8d18ed	-0.0688952
165	0x3c4d88f4	0.012544859
166	0x3c872354	0.016496338
167	0xbc49991c	-0.0123045705
168	0x3d062c48	0.032757074
169	0xbce3c3a0	-0.027803242
170	0xbcf234c6	-0.02956618
171	0xbb168c4a	-0.0022971802
172	0x3d3bf2dd	0.04588591
173	0xbd67f629	-0.05663124
174	0xbe11cb41	-0.14237691
175	0x3d0041c1	0.031312708
176	0x3ddb74c8	0.10715634
177	0xbd28ce8e	-0.04121261
178	0x3d07d622	0.033163197
179	0x3e57fad0	0.21091771
180	0x3db4cc66	0.088280484
181	0x3ddcf65c	0.10789177
182	0x3d060901	0.03272343
183	0xbd0a561c	-0.033773527
184	0xbd9c393c	-0.07628104
185	0xbe9ecff1	-0.31018022
186	0xbeaa12bf	-0.33217427
187	0xbe823b35	-0.25435796
188	0xbec23033	-0.37927398
189	0xbed891f1	-0.42298844
190	0xbeb02ea8	-0.34410596
191	0xbe5de4e7	-0.2166935
192	0xbd3de6bd	-0.046362627
193	0x3cc25f2d	0.023727024
194	0xbc8867de	-0.01665109
195	0x3c71e7e9	0.014764764
196	0xbc9f53ff	-0.019449232
197	0x3ce95817	0.028484387
198	0x3ca8181c	0.020519309
199	0xbd1e22e9	-0.03860751
200	0x3c9f3e62	0.019438926
201	0x3c871e63	0.016493982
202	0x3d7c5b85	0.061610717
203	0x3e822b42	0.25423628
204	0x3ea1d9e3	0.31611547
205	0x3e628f99	0.2212509
206	0x3ea43a06	0.32075518
207	0x3dfb81dc	0.12280628
208	0xbe34269f	-0.17592858
209	0xbe57234b	-0.21009557
210	0xbebd1a61	-0.36934188
211	0xbed96d6f	-0.42466304
212	0xbf0840a4	-0.53223634
213	0xbf194ec9	-0.5988584
214	0xbee6d5cb	-0.45084986
215	0xbeb3312d	-0.34998456
216	0xbeb7d957	-0.35908005
217	0xbed43571	-0.41447023
218	0xbf06827b	-0.5254285
219	0xbed1498f	-0.40876433
220	0xbd99825f	-0.074955694
221	0x3c0708d1	0.008241848
222	0xbd2b2c66	-0.04179039
223	0x3c293c93	0.010329383
224	0xbc9852bd	-0.01859414
225	0x3c9a6f72	0.01885197
226	0xbcb5cacc	-0.022191428
227	0x3b8e53a8	0.0043434687
228	0xbca6b267	-0.02034874
229	0x3dccfc74	0.10009089
230	0x3e4c75ee	0.19966862
231	0x3e6075da	0.21919957
232	0x3eb510f6	0.35364503
233	0x3e78f3d3	0.24311762
234	0x3e4baa27	0.19889127
235	0x3df721ba	0.1206698
236	0xbe620428	-0.22071898
237	0xbda10f9a	-0.07864304
238	0xbecb6639	-0.39726427
239	0xbf43d3a4	-0.7649481
240	0xbf4826cb	-0.78184193
241	0xbf0b9302	-0.5452119
242	0xbf0c3949	-0.5477491
243	0xbe897d4a	-0.268534
244	0xbe1c4b4b	-0.15263097
245	0xbeb9ac2c	-0.3626417
246	0xbecaacfb	-0.395851
247	0xbea761bf	-0.32691762
248	0xbde4deb3	-0.11175289
249	0xbd93141b	-0.07181569
250	0x3c8e8477	0.017397149
251	0x3ba412a2	0.005007104
252	0xbca06918	-0.019581363
253	0xbc9767e8	-0.018482164
254	0xbc6e0fb4	-0.014530111
255	0xbd3ef997	-0.046624746

fc1.bias f4 [128]
0	0xbcc44200	-0.023957253
1	0xbc8bf201	-0.01708317
2	0xbbd8c7df	-0.0066156234
3	0xbcc8fa1b	-0.024533322
4	0xbafccd88	-0.0019287327
5	0xbcabfb57	-0.020993872
6	0x3ca79749	0.02045788
7	0xbbff7ddd	-0.0077969865
8	0x3cdfe383	0.027330166
9	0xbd1c8e36	-0.03822156
10	0xbd87481a	-0.06605549
11	0xbd8e4a7a	-0.06947799
12	0xbcde3a51	-0.027127417
13	0xbbcbb152	-0.0062162066
14	0x3a74c929	0.00093378365
15	0x3ce5b224	0.028039046
16	0x3ced836f	0.028993336
17	0xbc5c65b9	-0.013451987
18	0xbd8284b8	-0.0637297
19	0xbdaaabe3	-0.08333566
20	0xbd0e28e5	-0.03470697
21	0xbb313338	-0.0027038585
22	0x3ca14227	0.019684864
23	0x3c1cd0aa	0.009571234
24	0x3cbc9324	0.02301938
25	0x3cd6f948	0.026241913
26	0x3c524750	0.012834385
27	0xbc309e70	-0.010779962
28	0xbd3cc2e7	-0.04608431
29	0x3cb5d2b2	0.022195194
30	0xbbac70dd	-0.005262478
31	0x3ca8387b	0.020534744
32	0xbc8b9eec	-0.017043553
33	0xba1de55a	-0.0006023251
34	0xbc0806a6	-0.008302366
35	0x3cb0d78b	0.021587154
36	0xbc45256f	-0.012032851
37	0x3cce9b5e	0.02522057
38	0xbb87f725	-0.004149335
39	0x3c023921	0.007948191
40	0x3bfb4266	0.0076678274
41	0xbc8bb097	-0.017051978
42	0x3c9b21bd	0.018936986
43	0xbda5ba97	-0.0809223
44	0x3c0b5e1b	0.008506323
45	0x3c85264e	0.016253617
46	0xbcaf7347	-0.021417273
47	0x3d19a443	0.037510168
48	0xbcedfe2f	-0.029051868
49	0xbcc99aaa	-0.024609882
50	0xbbaa33d1	-0.0051941653
51	0xbb49f156	-0.0030814013
52	0x3bb2156f	0.005434684
53	0x3aa6c803	0.0012724403
54	0xbb1d1f36	-0.0023974902
55	0xbc2f096d	-0.0106834
56	0x3ca08e03	0.019598966
57	0xbcfdace2	-0.030966226
58	0xbc7c28e8	-0.015390612
59	0x3d3cbbbc	0.046077475
60	0x3d1b837c	0.03796719
61	0xbdaa9587	-0.08329301
62	0xbb4592eb	-0.0030147384
63	0x3b74a38c	0.0037328927
64	0xbd6bfe0d	-0.05761533
65	0xbb7b1368	-0.0038311128
66	0xbd94f167	-0.07272606
67	0xbc87b7da	-0.01656716
68	0xbce80bf5	-0.028326014
69	0x3c6f1a92	0.014593737
70	0x3aa594b7	0.0012632821
71	0x3b92a2eb	0.0044749877
72	0x3bc1909a	0.0059071304
73	0x3c49eb81	0.012324215
74	0x3c629620	0.013829738
75	0xbd0dfc01	-0.034664158
76	0xbd6b428d	-0.057436515
77	0x3ce7b2dc	0.028283529
78	0xbd4737cb	-0.048637193
79	0x3c926d76	0.01787446
80	0xbd065a5c	-0.032801017
81	0xbd1104b1	-0.035404865
82	0x3c123ef2	0.00892614
83	0x3c619243	0.013767782
84	0xbc0b35db	-0.008496727
85	0xbb738a1a	-0.0037161172
86	0x3cd2fbb6	0.02575479
87	0x3cbb3e18	0.022856757
88	0xbc065dc6	-0.008201068
89	0x3b39bd7c	0.0028341701
90	0xbcca6208	-0.024704948
91	0xbcbd5a46	-0.023114335
92	0xbc3d003a	-0.011535699
93	0x3c6db703	0.014508965
94	0xbb06fe14	-0.002059822
95	0xbd559a74	-0.05214925
96	0xbbae7882	-0.0053244242
97	0xbd3bb9c6	-0.045831464
98	0x3c14e550	0.0090878755
99	0xbc6311c2	-0.013859214
100	0x3d743154	0.059617355
101	0xbce2f1b2	-0.02770314
102	0x3cf3768f	0.02971962
103	0xbc6543f5	-0.013993253
104	0x3b95dcf8	0.0045734607
105	0xbc14723d	-0.00906044
106	0xbc906100	-0.017624378
107	0xbcb692e0	-0.022286832
108	0xbd1942e2	-0.0374173
109	0xbc0e53c4	-0.0086869635
110	0xbc93cb03	-0.01804114
111	0x3ca70975	0.020390252
112	0xbd0647f6	-0.03278347
113	0xbcee9259	-0.029122518
114	0xbcd07319	-0.025445508
115	0x3cddc55e	0.027071651
116	0xbaf4566e	-0.0018641481
117	0xbd28777b	-0.04112957
118	0x3c280e69	0.010257342
119	0xbd223fd4	-0.039611652
120	0xbc5c83a0	-0.013459116
121	0xbd21a043	-0.039459478
122	0xbd50611e	-0.05087387
123	0xbc0a6c5d	-0.008448687
124	0x3c359671	0.011083231
125	0xbc4b753e	-0.012418089
126	0xbc31f14a	-0.01086075
127	0x3b08451c	0.0020793146

fc2.weight f4 [64, 128]
0	0x3da8a881	0.082352646
1	0xbed0db3c	-0.40792263
2	0xbdb07cb9	-0.08617539
3	0x3de9c2e8	0.114141285
4	0xbd9ac29a	-0.075566486
5	0xbe85016e	-0.25977653
6	0x3e1e029b	0.15430681
7	0x3d908912	0.07057394
8	0xbe4731e9	-0.19452633
9	0xbcd7286a	-0.026264388
10	0x3ceb5b08	0.02872993
11	0xbde965ab	-0.11396345
12	0x3d27d35e	0.04097306
13	0x3d6715db	0.056417327
14	0x3d137fb9	0.036010478
15	0x3d6a3986	0.057183765
16	0x3e5399c8	0.20664132
17	0x3d81416b	0.063113056
18	0xbeb8548e	-0.3600201
19	0x3d334464	0.043766394
20	0x3e4196b8	0.18905151
21	0xbd37ad45	-0.044842977
22	0xbc41626c	-0.011803251
23	0x3e20cf1c	0.15704006
24	0x3b99a536	0.004688884
25	0x3e05a018	0.13049352
26	0x3cc73b1e	0.024320181
27	0x3c0879d6	0.008329829
28	0xbe1fb6b1	-0.15597035
29	0x3cccd1f7	0.025002463
30	0xbd1b0453	-0.03784592
31	0xbd0269cb	-0.031839173
32	0x3df2a2d6	0.11847465
33	0xbde1e684	-0.110302955
34	0xbd4d48a4	-0.050118104
35	0x3d6e28c6	0.058144353
36	0x3e737dc7	0.23778449
37	0x3bd9f1af	0.0066511254
38	0xbe0f0956	-0.13968405
39	0xbd9f3556	-0.07773845
40	0xbd6b8ac5	-0.057505388
41	0xbca29b4b	-0.01984944
42	0x3d47a4ce	0.048741154
43	0x3d92459f	0.071421854
44	0x3e194e4e	0.14971277
45	0xbcf7c9f8	-0.030247673
46	0xbd929ce0	-0.07158828
47	0x3e1e0741	0.15432455
48	0x3de05c75	0.10955135
49	0x3d2eb9b8	0.042657584
50	0x3d05877c	0.03259991
51	0x3e094923	0.13406806
52	0xbeedbeb0	-0.46434546
53	0x3c991e06	0.018691074
54	0xbec59559	-0.38590506
55	0x3e99bacb	0.30025324
56	0x3cb6c251	0.022309454
57	0x3c79f12b	0.015255253
58	0xbd143b52	-0.036189385
59	0x3df5cc19	0.12001819
60	0xbd2a7958	-0.04161963
61	0xbe0663b3	-0.1312397
62	0x3d64c167	0.055848505
63	0xbd0eafc5	-0.034835596
64	0xbdca9351	-0.098913796
65	0x3e3fa3be	0.18714806
66	0xbdbb238e	-0.09137641
67	0x3c84f476	0.01622985
68	0xbca61384	-0.020272978
69	0x3aae160c	0.0013281717
70	0x3d3fc89f	0.046822187
71	0x3e92bcb8	0.28659606
72	0x3db85fd5	0.090026535
73	0x3c111b0a	0.008856544
74	0x3df07d2f	0.11742627
75	0xbd889aef	-0.06670176
76	0xbd29da88	-0.041468173
77	0x3dc853ce	0.097816095
78	0x3ee6f508	0.4510882
79	0x3d8c855a	0.06861372
80	0xbd44e1f4	-0.04806705
81	0x3d739d52	0.059476204
82	0xbd96ef85	-0.073699035
83	0x3d3422b1	0.043978397
84	0x3d54f054	0.051987007
85	0x3dd664d6	0.10468452
86	0xbd9d0fc3	-0.07669022
87	0xbdb7e405	-0.08979038
88	0x3e2151ff	0.15753935
89	0x3dab66ec	0.0836924
90	0xbd6505c9	-0.05591372
91	0xbd817f9d	-0.063231684
92	0x3e0184aa	0.12648264
93	0x3ce6a637	0.02815543
94	0x3c624b1a	0.013811851
95	0xbe1f7ec2	-0.15575698
96	0xbd691008	-0.056900054
97	0x3daa95eb	0.08329376
98	0xbe3dc8e8	-0.18533671
99	0x3d9c2042	0.0762334
100	0x3d85380b	0.0650483
101	0x3d82c71a	0.06385632
102	0xbe06e269	-0.13172306
103	0xbccd73e2	-0.025079671
104	0xbd3470b4	-0.044052795
105	0xbdaaf923	-0.083483
106	0x3ad14d32	0.001596844
107	0x3cb26e28	0.021781042
108	0xbd7b1c74	-0.061306432
109	0x3daad055	0.083405174
110	0x3c30c6cb	0.010789583
111	0x3e010749	0.12600435
112	0xbe567115	-0.20941575
113	0xbbefc578	-0.0073172413
114	0xbd9c68d6	-0.07637183
115	0xbc92ea2d	-0.01793393
116	0x3ead2a8f	0.33821532
117	0x3d34ef8f	0.044173773
118	0x3d42ab4a	0.047526635
119	0x3e8c91dd	0.27455035
120	0xbdfbe7fa	-0.123001054
121	0xbccb0d52	-0.024786625
122	0x3e5170a3	0.20453124
123	0x3ddf24ee	0.10895716
124	0xbd9a647b	-0.075386964
125	0xbd1ac9e7	-0.037790205
126	0x3ca0c804	0.019626625
127	0x3d7aa69c	0.061194047
128	0xbcf3eaae	-0.02977499
129	0xbd0530c6	-0.032517217
130	0x3dcaba90	0.09898865
131	0x3dab2a2c	0.08357653
132	0x3d93b782	0.07212736
133	0xbdd2d4d0	-0.10294497
134	0xbcfcacb9	-0.03084408
135	0x3d3bbe76	0.045835935
136	0x3e286410	0.16444421
137	0x3e5940a0	0.21216059
138	0xbe066cfd	-0.13127513
139	0xbe482b32	-0.19547728
140	0x3d866d80	0.06563854
141	0x3d699c53	0.057033848
142	0x3c972271	0.01844904
143	0xbcbf2fb2	-0.023338173
144	0x3db5164a	0.08842142
145	0x3e4a40dd	0.19751306
146	0x3eb9e459	0.36307028
147	0x3dde15ff	0.10844039
148	0x3da765e6	0.081737325
149	0xbe3fef20	-0.18743563
150	0xbe1a7e75	-0.15087302
151	0xbbcbbd83	-0.00621766
152	0xbc1da09b	-0.009620811
153	0xbe5cea69	-0.21573795
154	0x3dc10f09	0.09426696
155	0x3c4f2bb4	0.012644697
156	0xbb977349	-0.0046218974
157	0x3c030394	0.007996459
158	0xbe6c75d3	-0.23091821
159	0x3ccd827b	0.025086632
160	0x3e816c43	0.2527791
161	0xbe94c2f2	-0.2905498
162	0x3d2200ea	0.039551653
163	0x3d611088	0.054947406
164	0xbcc2bdb0	-0.02377209
165	0xbccaa638	-0.024737462
166	0x3dd029e7	0.10164242
167	0xbb577755	-0.0032877524
168	0xbe3f2b95	-0.18668969
169	0x3e050eeb	0.12993972
170	0x3d3c99e2	0.04604519
171	0xbe8adce9	-0.27121666
172	0x3dd284ec	0.10279259
173	0x3d6020ef	0.054718908
174	0x3d59b139	0.05314753
175	0x3e5d38fa	0.21603766
176	0x39323bc7	0.00016997672
177	0x3e0c17fd	0.13681026
178	0x3d7bdf25	0.061492104
179	0x3e21e3fe	0.15809628
180	0xbcbe998a	-0.023266573
181	0xbd30e68b	-0.043188613
182	0xbd6ae4b7	-0.057347026
183	0xbdea31e7	-0.11435299
184	0xbeb5680c	-0.35430944
185	0x3d8ae540	0.06782007
186	0x3cfd2a43	0.030903941
187	0x3dd60bd8	0.10451478
188	0x3b009fca	0.0019626492
189	0xbe960f72	-0.2930866
190	0xbd7205d0	-0.059087574
191	0x3d608517	0.054814424
192	0xbec85f14	-0.3913504
193	0xbc33fe0d	-0.010985863
194	0xbdc4dd81	-0.09612561
195	0xbd527cf0	-0.05138868
196	0xbca22d94	-0.019797124
197	0xbdfc1499	-0.12308616
198	0xbc2a65d0	-0.010400251
199	0x3c0757e1	0.008260698
200	0x3e5679ce	0.20944902
201	0xbd73319e	-0.05937349
202	0xbd935ef1	-0.07195843
203	0xbd2926e6	-0.041296862
204	0xbea9555e	-0.33072942
205	0x3e6e32d6	0.2326158
206	0x3db3cfc8	0.087798655
207	0x3e873007	0.2640383
208	0x3d8bce71	0.06826485
209	0x3db5d253	0.08878007
210	0xbd0a69df	-0.033792373
211	0x3d318cd8	0.04334721
212	0xbd96aff5	-0.0735778
213	0x3a994200	0.0011692643
214	0x3a34c0a8	0.0006895163
215	0x3d0c0a3f	0.03418946
216	0x3e3d64df	0.1849551
217	0xbdeff0c8	-0.11715847
218	0xbe23da77	-0.16001306
219	0x3d8e9acf	0.06963121
220	0xbd67ffc0	-0.056640387
221	0xbe066407	-0.13124095
222	0x3df63d6c	0.12023434
223	0xbc532e9a	-0.012889529
224	0xbc78dbb5	-0.015189101
225	0xbd4249b8	-0.047433585
226	0x3da43b0f	0.08019077
227	0xbdacb77e	-0.08433436
228	0x3cf72040	0.030166745
229	0x3d708dd8	0.058729023
230	0xbe0b1a21	-0.13584186
231	0xbe348af9	-0.17631139
232	0xbd5274f3	-0.051381063
233	0x3cd80d45	0.026373515
234	0x3bd354cc	0.0064493176
235	0x3d9b4f5e	0.075834975
236	0x3de71d82	0.11284925
237	0xbdc19b50	-0.09453452
238	0x3c97a4f6	0.018511277
239	0xbdfb24e4	-0.12262896
240	0x3d9bc66c	0.07606205
241	0xbc573a8b	-0.013136516
242	0xbd954905	-0.07289318
243	0xbc565730	-0.013082311
244	0x3e814bde	0.25253195
245	0xbdcdf8ae	-0.100571975
246	0x3cdeac4f	0.027181773
247	0xbdd54395	-0.10413281
248	0xbe560651	-0.20900847
249	0xbd3b5406	-0.045734428
250	0x3df5fb96	0.12010877
251	0xbab12768	-0.0013515772
252	0xbddf7486	-0.10910897
253	0x3e1c5b5f	0.1526923
254	0xbc467660	-0.012113184
255	0x3d9773bf	0.07395124

fc2.bias f4 [64]
0	0x3ec03ca1	0.37546256
1	0x3e47d718	0.19515646
2	0x3dcfcadf	0.101461165
3	0xbe8df785	-0.27727905
4	0xbe555017	-0.20831333
5	0x3de7f9af	0.1132692
6	0xbdd9fbbb	-0.10643717
7	0x3eca4b2a	0.3951047
8	0xbe8c92e6	-0.27455825
9	0x3e255a7c	0.16147798
10	0xbdc4b7c6	-0.096053645
11	0x3e8fd761	0.2809401
12	0x3d538fc4	0.051650777
13	0xbdb226c9	-0.08698804
14	0xbcd96965	-0.026539514
15	0x3ecf5cc0	0.4050045
16	0xbe06dd94	-0.13170463
17	0xbe545eac	-0.2073924
18	0xbe0a7e01	-0.13524629
19	0xbd8d2fff	-0.0689392
20	0x3ed5a494	0.41727126
21	0xbd28dddf	-0.041227218
22	0x3dfb849b	0.12281152
23	0xbcf39111	-0.029732259
24	0xbc5bdc45	-0.013419216
25	0xbe772d25	-0.24138315
26	0xbe8d88ac	-0.27643335
27	0x3bfb9f7b	0.0076789237
28	0xbd146d03	-0.036236774
29	0xbe1a9de4	-0.15099293
30	0xbd5c5de2	-0.05380047
31	0x3ec74810	0.38922167
32	0x3e779896	0.241793
33	0xbd2fb9ac	-0.04290168
34	0xbe30b419	-0.17256202
35	0xbe3b2af2	-0.18278101
36	0x3ed96125	0.42456928
37	0x3d6ddad1	0.058070008
38	0xbe251f40	-0.16125202
39	0xbe01093d	-0.1260118
40	0xbd58ec29	-0.052959595
41	0xbc1aee8c	-0.009456288
42	0xbda0b0ce	-0.07846223
43	0x3e9e1be5	0.30880657
44	0xbd1f4641	-0.03888536
45	0x3ce1a64e	0.02754512
46	0x3b29de18	0.0025919732
47	0xbc06625d	-0.008202163
48	0xbe23e9ff	-0.16007231
49	0x3d6a8187	0.057252433
50	0xbd0ad95c	-0.033898696
51	0x3e383fa0	0.17993021
52	0x3e204c09	0.15654005
53	0x3d3714c9	0.044697557
54	0x3e0503f5	0.1298979
55	0xbee35a2d	-0.44404736
56	0xbe6f776d	-0.23385401
57	0xbe76ee95	-0.2411445
58	0xbe606137	-0.21912085
59	0x3eb3802e	0.3505873
60	0x3e22812a	0.15869585
61	0xba176a11	-0.0005775998
62	0xbdfacee7	-0.12246495
63	0x3e129f49	0.14318575

fc3.weight f4 [10, 64]
0	0xbde19933	-0.110155486
1	0x3dcc1c04	0.09966281
2	0xbee11af2	-0.4396587
3	0x3cbe80e1	0.023254814
4	0xbe30044a	-0.17189136
5	0xbd8d88bf	-0.06910848
6	0x3cb463e2	0.022020284
7	0x3de5a7b3	0.11213627
8	0xbe9b64d2	-0.30350357
9	0x38b276c2	8.509822e-05
10	0x3d170f11	0.036879603
11	0xbea9ed3e	-0.33188814
12	0x3e51f21d	0.20502515
13	0x3d6653b9	0.056232188
14	0xbe9a237f	-0.30105206
15	0x3e1dbc74	0.1540392
16	0x3d84b445	0.06479696
17	0x3e0eaae4	0.13932377
18	0xbdd8a12d	-0.10577617
19	0xbde38268	-0.111088574
20	0x3b1c1f4e	0.002382237
21	0x3db1cb7e	0.08681391
22	0xbe5bcd3a	-0.21465006
23	0x3d305a08	0.04305461
24	0x3e8873d6	0.26650876
25	0x3e13cd9b	0.14433901
26	0x3e0572bd	0.1303205
27	0xbda700fe	-0.08154486
28	0x3e52ec99	0.20598067
29	0xbde9ddc3	-0.11419251
30	0xbd84d99e	-0.0648682
31	0x3e12459d	0.14284368
32	0x3ddd9de6	0.10821132
33	0xbdfc8578	-0.12330145
34	0xbdd9499e	-0.106097445
35	0x3ce69b83	0.028150326
36	0xbd33cf8f	-0.043899115
37	0x3dc000fb	0.09375187
38	0xbda1f5d8	-0.07908219
39	0x3daffa0d	0.08592615
40	0xbec1c47b	-0.37845215
41	0x3c5bbc8f	0.013411655
42	0xbca45a3f	-0.020062564
43	0xbe8d5f14	-0.276116
44	0xbf1b66d7	-0.60703796
45	0xbed0d2cc	-0.40785825
46	0x3e8a44f6	0.27005738
47	0xbeab4f4f	-0.33458945
48	0xbe8716fb	-0.2638472
49	0xbe6c3e7f	-0.23070715
50	0x3e5b5d4c	0.21422309
51	0xbed85c80	-0.42258072
52	0x3b571785	0.0032820415
53	0xbc247251	-0.010037021
54	0x3e359820	0.17733812
55	0x3c6cb482	0.014447333
56	0xbf0cf67e	-0.5506362
57	0x3d90b1b6	0.07065146
58	0x3dc2978a	0.0950156
59	0x3e0b0356	0.13575491
60	0xbcab2460	-0.020891368
61	0x3bf54dc8	0.007486079
62	0xbdf3c2c3	-0.11902382
63	0xbe69c766	-0.2282997
64	0xbe01b8c3	-0.12668137
65	0xbec369ff	-0.38166806
66	0x3d9e31fa	0.07724376
67	0x3dcfd9b8	0.101489484
68	0x3dd17eb8	0.10229248
69	0x3e867d0b	0.26267275
70	0xbea2221e	-0.31666654
71	0xbd9e5c5f	-0.07732462
72	0xbdb03e59	-0.08605642
73	0xbddcfc16	-0.10790269
74	0xbde7625d	-0.11298058
75	0xbdb01a3d	-0.085987546
76	0x3de3a02a	0.11114533
77	0x3d42ee77	0.0475907
78	0xbd976431	-0.07392157
79	0xbeecf695	-0.46281877
80	0x3d994784	0.07484344
81	0xbef469d4	-0.4773699
82	0x3cd90f84	0.026496656
83	0xbe348a93	-0.17630987
84	0xbe8ffba8	-0.28121686
85	0xbd09afe9	-0.033615027
86	0xbd23511a	-0.039872266
87	0x3e0ea6a4	0.13930756
88	0xbec74bdc	-0.38925064
89	0x3e2d837c	0.16944689
90	0x3d0a2d81	0.033734802
91	0x3cad8425	0.021181175
92	0xbf07e7b6	-0.5308794
93	0x3ecd9af0	0.4015727
94	0x3c0bd163	0.008533808
95	0xbd4b5f88	-0.049651653
96	0x3d682cfa	0.056683518
97	0x3e2f8395	0.17140038
98	0x3e84704e	0.25866932
99	0xbe554c52	-0.20829895
100	0xbe422d6e	-0.18962643
101	0xbd2cb33f	-0.04216313
102	0x3d9de8d0	0.07710421
103	0x3d72d09b	0.059280973
104	0xbcae0e48	-0.021247044
105	0x3c4df9ec	0.012571793
106	0xbe2ed301	-0.17072679
107	0x3e25a218	0.16175115
108	0x3d85c1fe	0.06531142
109	0x3ca5cbd5	0.020238796
110	0xbc877c91	-0.01653889
111	0x3dbdc5cd	0.09266243
112	0x3f07af59	0.53001934
113	0x3cbe3f9d	0.023223693
114	0xbe873d3a	-0.264139
115	0xbeddad65	-0.43296352
116	0x3db93166	0.09042625
117	0xbefd5867	-0.49481508
118	0xbe7f4773	-0.249296
119	0x3e12e663	0.14345698
120	0x3dd194a2	0.102334276
121	0x3dec36ff	0.11533927
122	0x3e6c5870	0.23080611
123	0x3e04d83d	0.12973113
124	0xbdeb3d72	-0.11486329
125	0x3d288782	0.041144855
126	0xbe2c013f	-0.1679735
127	0xbf0502b7	-0.5195727
128	0xbd6ea55a	-0.05826316
129	0xbdc61799	-0.0967247
130	0x3d52f334	0.051501468
131	0x3dd068d7	0.101762466
132	0xbcc8d939	-0.024517642
133	0x3cd06542	0.025438908
134	0xbdced2d5	-0.10098807
135	0x3db75f04	0.0895367
136	0x3e9782ed	0.29592076
137	0x3e0ba95f	0.13638829
138	0xbc1535c0	-0.009107053
139	0x3dde5686	0.10856347
140	0x3df91a5d	0.121632315
141	0xbdb77b34	-0.08959046
142	0xbe2f0c53	-0.17094545
143	0xbdebcae5	-0.115133084
144	0xbd815da3	-0.06316688
145	0xbdd5bb9e	-0.10436176
146	0xbdd81cb4	-0.1055235
147	0xb8f038a6	-0.000114546434
148	0x3c598d5a	0.01327833
149	0xbd827f04	-0.063718826
150	0xbea3bc1c	-0.31979454
151	0xbea85916	-0.32880467
152	0x3d9df8f6	0.07713501
153	0xbca22929	-0.019795017
154	0x3db87ad6	0.09007804
155	0x3b6687c4	0.0035176137
156	0x3d10255e	0.035191886
157	0xbeb1cbb8	-0.34725738
158	0x3e41beb9	0.18920411
159	0xbe1165c2	-0.14198974
160	0xbe9c9598	-0.3058288
161	0x3e6a5137	0.22882544
162	0x3dd710b4	0.10501233
163	0xbe75a1f1	-0.23987557
164	0x3d952224	0.072819024
165	0xbdd9260d	-0.10602961
166	0x3d759b37	0.059962478
167	0x3c128bae	0.008944435
168	0x3ea60b58	0.3243053
169	0xbe9f48eb	-0.3111032
170	0x3d975cfb	0.073907815
171	0xbb96d09f	-0.0046025063
172	0xbf10d952	-0.56581604
173	0x3df468af	0.11934029
174	0x3e6051ba	0.21906176
175	0x3da47839	0.08030743
176	0xbec0aa25	-0.3762981
177	0xbd8dfa5b	-0.06932517
178	0x3c8c2ed2	0.01711217
179	0xbe82692d	-0.25470868
180	0xbe85b23d	-0.26112548
181	0xbed10522	-0.4082423
182	0x3e30a079	0.17248715
183	0x3e28d262	0.16486505
184	0x3e8207e7	0.25396654
185	0x3d91681b	0.07099935
186	0x3dffcce2	0.1249025
187	0xbcde7b5e	-0.027158435
188	0x3d491db9	0.04910061
189	0xbce51cca	-0.02796783
190	0xbe413417	-0.18867527
191	0x3e63c015	0.22241242
192	0x3e54c663	0.20778804
193	0x3e14ae24	0.14519554
194	0x3e0c43d8	0.13697755
195	0x3d06890e	0.03284555
196	0x3dfd373f	0.12364053
197	0xbee1b40f	-0.44082686
198	0xbe31fd5d	-0.17381807
199	0xbb486fcb	-0.0030584212
200	0xbd23534c	-0.03987436
201	0x3e46ab8f	0.19401382
202	0xbe76f3fb	-0.24116509
203	0xbe8d8e94	-0.2764784
204	0xbe05131c	-0.12995571
205	0x3dd77489	0.10520274
206	0x3e1518db	0.14560263
207	0xbe13ef75	-0.14446814
208	0xbe2ccc34	-0.16874772
209	0xbeb82da9	-0.35972336
210	0xbd47e2d7	-0.048800316
211	0x3d09c5f0	0.033636034
212	0x3d227175	0.039658982
213	0xbe7f31ab	-0.2492129
214	0xbd8c9e83	-0.06866171
215	0xbdcbe698	-0.09956092
216	0x3cdaa2fe	0.026689049
217	0x3de94b92	0.11391367
218	0x3e191ca6	0.14952335
219	0x3dc02662	0.09382321
220	0x38735e68	5.8023637e-05
221	0x3cf055e8	0.029337838
222	0xbb71e960	-0.0036912784
223	0xbe541e54	-0.20714694
224	0xbd54bdd8	-0.05193886
225	0xbe8e4539	-0.27787188
226	0xbf082651	-0.53183466
227	0x3de8b267	0.113621525
228	0xbdf0ea11	-0.117633946
229	0xbd97910e	-0.07400714
230	0x3d32d95b	0.043664318
231	0xbd8a986c	-0.067673534
232	0x3e782b91	0.2423537
233	0xbd440e37	-0.04786512
234	0x3defaff1	0.1170348
235	0xbedec5ef	-0.43510386
236	0x3e648e30	0.22319865
237	0x3e08c49e	0.13356254
238	0xbe063715	-0.1310695
239	0x3dfdbb83	0.12389281
240	0xbeb8363d	-0.3597888
241	0x3df87952	0.12132515
242	0xbe8cbbfc	-0.2748717
243	0xbd6c8037	-0.057739463
244	0xbe4e74c3	-0.20161729
245	0x3e8a5b0b	0.27022585
246	0x3de2fc16	0.11083238
247	0x3e05464f	0.13015102
248	0x3e1b0a30	0.15140605
249	0xbd03f329	-0.032214317
250	0xbe2320bd	-0.15930457
251	0x3df5d6e8	0.12003881
252	0xbd824988	-0.06361681
253	0x3d3ac5b6	0.045598708
254	0x3c59d0c0	0.013294399
255	0xbe7b55bd	-0.24544425

fc3.bias f4 [10]
0	0xbe351ff1	-0.17687966
1	0xbe771915	-0.24130662
2	0xbeaecf35	-0.3414246
3	0xbde9aab1	-0.1140951
4	0x3e520695	0.20510323
5	0xbdc9674f	-0.09834158
6	0xbddf2913	-0.10896506
7	0xbe2eb740	-0.17062092
8	0x3f059bfe	0.5219115
9	0x3e3d8766	0.18508682
