mnist_model.pth (torch, 440112 bytes, 6 tensors)

fc1.weight f4 [128, 784]
00000000: 6f10 bdb8 bbc8 e53c 81e9 9e3c bf3b fd3c
00000010: 5f41 723c 9f16 dd3c f52f ea3b 89d1 89bc
00000020: 56b0 173d 9b0d c43c 8a2b 153d b44a bf3c
00000030: fd77 133c bc01 f5bb 26b5 a33c f62d a43b
00000040: fbb9 7bbc 6378 17bb 42b5 ccbc 9ca4 093d
00000050: 891a cebb 1437 b1bc 3ef6 f83b d09b 953c
00000060: fe55 dabc ab42 f73c c52a 5e3b f77b 3dbb
00000070: 6318 e0bc f6bd d9bc d94d 47bc d8b8 d2bc
00000080: 725c f03c 10a3 d1ba f483 263d e9fd 723b
00000090: c682 e1bc ef84 1f3d eb3e 47bc 0f1c 9fbc
000000a0: a137 5abc de6c 49bc 1f01 3b3c 99d9 9dbc
000000b0: cfe4 87bc 13cc 4fba 0d10 afbc 8848 a73c
000000c0: 882e 053d 877e ff3b ef3f 7dbb 784a d73c
000000d0: 5b75 843a dba9 cfb9 94e0 d9bc 1040 183d
000000e0: 36ef 203d fd19 a1bc b9d1 b7bc ab04 a9bc
000000f0: f62a fb3c 3273 113d 6cfa 1f3d f1b3 773c
00000100: 31f0 603a 5a58 553c b5cd 013d 616c f5bb
00000110: 5513 3a3b b817 7abb 98b3 0d3d 5cfd 78bb
00000120: 9f66 1d3d 1de6 a13c 23b4 643c c957 a6bc
00000130: 14b5 8abc db89 aebc 9b8d a2bc b2c4 86bc
00000140: fbaf 793b 239c f63b 29a1 84bc 4575 e5bc
00000150: 8e8f 1c3d a649 b1bc f4d4 e13c ff03 22bc
00000160: f68c ae3c a2c5 cb3c 6af0 223d dc2a 2a3d
00000170: 128d e7bc f674 e9bc f665 ea3c f469 9f3c
00000180: 711b a13c 8f8b 143c e3f4 0dbb 6c9e da3b
00000190: 86fc 49bc 32dc 98bc 0f09 1e3d a3cd 3cbc
000001a0: fa5f 9c3c 3878 e9bc 4b54 c9bc a6fd cf3c
000001b0: cf43 143d 76f1 463c 97d8 f1bb 2ecc 013d
000001c0: b984 b5bb a1ec 913c 5bbe f43a 9081 b8bc
000001d0: a655 003d baeb 633c fa32 2e3c b245 123d
000001e0: b1cc 263d 9598 04bc ff91 dfbc 4b53 293c
000001f0: 9f7a 963c 09b3 e7bc ff8c a23b 9569 c6bc
00000200: 8d51 b93c 7bb7 85bb 7e72 59ba 758d 25bd
00000210: ebc4 123c 2865 4fbc ca02 b8bb c3dc 003d
00000220: e7f3 e6bb a2af fdbb b390 2a3d 1de8 fd3c
00000230: e6e5 44b9 bf94 9abc 7f2b 523c 1dba ad3c
00000240: f605 c03b 6dfd bb3b d1e9 853c 5f9a 253d
00000250: 3427 4cbc eb6f 45bc 1d19 83bc 263a 75bc
00000260: c373 d03c f26a 3a3a 70b4 28bd 04cb f1bc
00000270: dd8b 0bbc 5536 fcba 6256 b0bc 497a 913c
00000280: ed88 b63a 97de 893c 3086 5d3c d510 0d3d
00000290: f70b b23c c25d e9bc 9182 c63b be85 113d
000002a0: 59b6 213d 1599 0fbc 545e b8bc e676 e83c
000002b0: 488b 9a3c 4996 e93c 6c60 1cbc 9b3e bf3b
000002c0: a902 1f3d 65da f93c 919e 1d3d 73c7 83bc
000002d0: 37ba b83c 6a4c a7bc 3bd7 1a3c 447f bbbb
000002e0: 9069 85bc a36e fc3b e7ba 55bc 79e7 30bc
000002f0: 409b 903b 00c6 23bd 348f 153d 232a 073c
00000300: fda6 fc3c bbec fb3c d050 2a3d 511d 343c
00000310: 55d1 253b 2cec 923b b56f 143d 2d45 c03c
00000320: 5121 a13c fad1 f1bc 3921 b2bc 93b4 53bc
00000330: da1e 953b 33cd 9dbc 15a3 4bbc dc2a a9bc
00000340: 3eae 1dbd 031a 4dbc 1892 a1bc 3378 debc
00000350: b8b7 dc3c 298d 7e3a b005 253d 1c67 92bc
00000360: 6cd0 473c f2d2 14bd c297 8e3c 247f d4bc
00000370: d2b6 c03b 9513 43bc 1a16 413c 6d09 d73c
00000380: c9e9 ec3c 5da8 ae3c 474c e5bc a769 023d
00000390: 7ff8 45bc 40a3 ccbc 704b b9bc 3924 ecbc
000003a0: 7590 39bc 954c 0a3d c2ef 923c f2a2 0bbd
000003b0: c603 a7bc c647 a03c 9bf9 40bc 7add d43c
000003c0: c4a0 d6bc 66ad c1bb a970 fd3b 11ff 86bc
000003d0: 99cb 8a3c e1a4 a13b ec9d cbbb 6e0c bbbb
000003e0: 5d1a b3bb 3ec7 223d 22c8 abbc b27c d13c
000003f0: 5476 ccbc 7f99 b33b 02d5 da3c fb48 553b
-9.015283e-05 0.028049817 0.019398453 0.030912278 0.0147860935 0.026988326 0.00714683 -0.016823547
0.0370334 0.023932269 0.036418475 0.02335105 0.009000775 -0.0074770134 0.01998384 0.005010362
-0.015364165 -0.0023112528 -0.024988774 0.03360425 -0.0062897843 -0.021632709 0.0075977137 0.018262774
-0.026652332 0.030183157 0.0033900004 -0.0028913 -0.027355378 -0.026579838 -0.012164556 -0.025722906
0.029340956 -0.0015994031 0.040653184 0.0037077612 -0.027528178 0.038945135 -0.012160997 -0.019422559
-0.013318927 -0.012294022 0.0114138415 -0.019268798 -0.016588597 -0.0007926833 -0.021369958 0.020420328
0.03251508 0.0077970657 -0.0038642844 0.026280627 0.0010105775 -0.0003960867 -0.026596345 0.03717047
0.03929063 -0.019665712 -0.02243887 -0.020632109 0.030660134 0.03551025 0.03905718 0.015118585
0.0008580713 0.013021553 0.03169032 -0.0074897264 0.002839287 -0.003816111 0.034595102 -0.003799281
0.038427945 0.019763047 0.013958964 -0.020305531 -0.016932048 -0.021305969 -0.019842913 -0.016451214
0.0038099277 0.007525937 -0.016190128 -0.02801002 0.038222842 -0.021641564 0.027567364 -0.009888648
0.02130745 0.024874512 0.039780058 0.04154478 -0.02826551 -0.028498154 0.028613072 0.019459702
0.019666405 0.0090664765 -0.0021660856 0.0066717174 -0.012328273 -0.018659685 0.038582858 -0.011523637
0.019088734 -0.028499708 -0.024576327 0.025389504 0.03619748 0.01214253 -0.007380556 0.03168886
-0.0055395034 0.017813029 0.0018672453 -0.022522718 0.03133168 0.013911182 0.010632271 0.035710998
0.040722553 -0.008093019 -0.027291296 0.0103348 0.018369017 -0.028283613 0.0049606557 -0.024220267
0.022621894 -0.0040807105 -0.0008294954 -0.040418107 0.008958082 -0.012658395 -0.005615567 0.031460535
-0.0070481184 -0.0077418843 0.041641902 0.03099447 -0.0001877766 -0.018869756 0.012827753 0.02120691
0.0058600856 0.005736998 0.016346844 0.040430423 -0.012460519 -0.012050609 -0.016003186 -0.014967477
0.025445824 0.0007111273 -0.041187704 -0.02951575 -0.008517233 -0.0019242266 -0.021525566 0.017758505
0.0013926305 0.016829772 0.013520762 0.03443988 0.02173422 -0.02848709 0.006058045 0.035527937
0.03948054 -0.008764525 -0.022505917 0.028377008 0.018865243 0.028514044 -0.009544473 0.0058363206
0.038820896 0.030499646 0.0384813 -0.016086316 0.022549732 -0.02042218 0.009450729 -0.0057219584
-0.016285688 0.0077036186 -0.013045049 -0.010797375 0.0044130385 -0.03998375 0.036513522 0.008249792
0.030841345 0.03075253 0.041580975 0.010993318 0.0025301774 0.0044837203 0.036239345 0.023470486
0.019669207 -0.02951907 -0.021744357 -0.01292147 0.004550797 -0.019262886 -0.0124290185 -0.02065032
-0.03849625 -0.012518409 -0.019722983 -0.027156925 0.026943073 0.00097103656 0.040288627 -0.017871432
0.012195688 -0.036333986 0.017406348 -0.025939532 0.005881169 -0.011906524 0.011785055 0.026249612
0.028920071 0.021320516 -0.027990473 0.03183904 -0.012083172 -0.024980187 -0.02261898 -0.028825866
-0.011325945 0.03376444 0.017936591 -0.034090944 -0.020387542 0.019565474 -0.011778261 0.025984515
-0.026199706 -0.0059105633 0.0077343774 -0.016479047 0.016942786 0.004932985 -0.006213894 -0.005708269
-0.005465789 0.039740793 -0.020969454 0.025572155 -0.024958767 0.0054809446 0.026712898 0.003254472

fc1.bias f4 [128]
00000000: 5965 ab3c b6e9 03bd a67a 95bc 4d0d 69bd
00000010: 8fae 20bd c89c e73c 4aaf 083b 1515 91bc
00000020: b47b 15bd 724e 2d3d e00f 32bd cc6d dabc
00000030: 734f 20bd f476 4f3d 36d3 da3b fbae 63bc
00000040: 14b9 1fbd a22a 9b3c 2654 f43b 0937 51bc
00000050: 43b5 e73b 9dfd 4abd d5cb fdba 5593 23bd
00000060: fa90 e6bb 40da 0ebc 9a41 dabc a08c 65bd
00000070: adeb ccbb 2073 20bc 0f3b bdbc 6187 8cbc
00000080: 2a19 0dbc 8190 c4ba 0649 44bd 7ed3 ebbc
00000090: 8e41 8d3a ecac 7b3c e42e 61bc 161d 61bd
000000a0: 4b17 debb bd45 8a3c 3a1b 343c 7162 e4bc
000000b0: f1c8 dabc 0564 d1ba ce44 b1bc fa8f 66bc
000000c0: 8b99 97bd f10b 0b3d 04cd 7abd 4b05 fcbc
000000d0: 530e c53c e4bd a2bc 2faa b13c 32a7 5b3c
000000e0: c445 f0bb 0694 fabc 5ab1 6fb9 f905 573c
000000f0: b060 3dbd 5a26 88bc f470 8bbd 9b29 5fbc
00000100: b4e0 8dbc 4210 d5bc 3ebe 29bc 1e73 5bbd
00000110: ea4d 8e3c 83f4 9e3b 25d0 1cbc 1f62 06bd
00000120: 7fbe 3fbd 0034 20bd 8601 8b3c 2386 8c3c
00000130: 1d25 09bd 7b15 10bd dd2b 183d 04a2 553a
00000140: 47f9 63bd 66e5 143d 2349 3e3c c109 d93b
00000150: 1301 663c fbf3 a9bc d989 66bd 04b8 18bd
00000160: b7a3 f6bb e908 ad3c 7ca9 53bb dd80 ecb9
00000170: 9d73 88bc 3430 e1bb 303f 27bd 0ce8 f6bc
00000180: d9c9 2cbc 4b00 cebc 378d 8ebc 01fa a93c
00000190: 4617 12bd dfad 15bd 9ffd 12bc 943b bb3b
000001a0: 96da 32bd f6e9 d43c 22da 36bb 0d23 773b
000001b0: 4720 0ebc 9d2e 853c 6468 13bd 7a81 83bc
000001c0: 8500 a93c 9bde 213b f843 13bb f1ad 16bd
000001d0: fdd9 e7bc b8c2 15bd 99b1 ca3c e4c4 a73b
000001e0: a689 c83c c6ad 1d3c 3e35 24bd 1cc5 48ba
000001f0: efa9 1cbd 875e b53c 3c1e 9cbc 0946 89bd
0.02092235 -0.032205306 -0.01824696 -0.05689745 -0.039228972 0.028273001 0.0020856434 -0.017710248
-0.036494926 0.04231114 -0.04347217 -0.026663683 -0.03913827 0.050650552 0.0066780103 -0.013896699
-0.038994864 0.018941227 0.0074563203 -0.012769469 0.0070711686 -0.04955827 -0.0019363115 -0.03993543
-0.0070363255 -0.008719027 -0.02664261 -0.056042314 -0.0062536807 -0.009793073 -0.02309945 -0.017154397
-0.008611957 -0.0014996679 -0.047921203 -0.02878737 0.0010776983 0.015361052 -0.01374409 -0.05495938
-0.006777679 0.016878957 0.010992819 -0.027878972 -0.026707144 -0.0015975243 -0.021639254 -0.014072413
-0.07402333 0.033946935 -0.061230674 -0.030764243 0.024054682 -0.019865938 0.021687595 0.013406562
-0.0073325355 -0.030588161 -0.00022858885 0.013123983 -0.046234787 -0.01661985 -0.068086535 -0.013620759
-0.01731906 -0.026008729 -0.010360299 -0.05357658 0.017371137 0.0048509254 -0.00957111 -0.03280842
-0.04681253 -0.03911209 0.0169685 0.017153805 -0.03348266 -0.035176735 0.037151206 0.00081494474
-0.05565765 0.036351584 0.011614117 0.006623477 0.014038342 -0.020746222 -0.056283806 -0.037284866
-0.0075268405 0.021122413 -0.0032297065 -0.00045109438 -0.016656691 -0.0068722013 -0.040831745 -0.030139945
-0.010546171 -0.025146624 -0.01740132 0.020749094 -0.035666727 -0.03654277 -0.008971601 0.0057138894
-0.04366549 0.025990468 -0.0027901013 0.00377101 -0.008674688 0.016257579 -0.035988227 -0.01605295
0.02063013 0.0024699334 -0.0022470932 -0.036786977 -0.028302187 -0.03656265 0.024742888 0.0051199067
0.024479698 0.00962395 -0.04008984 -0.0007658766 -0.038248 0.0221398 -0.019057386 -0.06702811

fc2.weight f4 [64, 128]
00000000: 1943 fabb 64ad 8cbd 944d 3abe 9920 393c
00000010: f4bd 05bd 8a0f 893c b35d 59be 5034 3f3d
00000020: ce6a 12bd 1b47 243c a6e3 8b3d ac8a 58be
00000030: 6c28 6dbd c16c 02bd 0862 80bd d0ef d1bd
00000040: d057 413d 66cc 073e 6e2c 59be 059c abbc
00000050: 584d cabd 34d9 89bd eeb3 733d 8aab 0bbd
00000060: 6bf0 0a3b 6954 a7bd b351 09be 4845 563e
00000070: 1e2c 26be 693b 993d 0d32 3e3d 0860 a03d
00000080: d53c 9d3e 87c9 87bd 5e32 8abe 1b9e 153d
00000090: 5f35 9ebe cdd8 4e3d 8eec 663d d656 193e
000000a0: 0f5d e3bd ee97 91bd be04 afbd 098d 353e
000000b0: d85b 013e 98b6 21bd 6c5b 87be f1a8 0b3d
000000c0: c3df d73d 8a7b 0cbd 6c63 81be 65cf 97bd
000000d0: c35a 50bb a83b ae3d eb55 e73d 978c a0be
000000e0: 41b2 483e 1315 67bd d3f5 e2bd 4811 413e
000000f0: 3276 f9bd e6db 953d d9bc 35be 43fb c4bb
00000100: a506 34bd 62ab a8bd d067 8c3d 92be 113e
00000110: d46f 91bd c7cd bb3e d800 b5bb 2d64 babd
00000120: 9008 dcbd d988 fcbc 81c8 c2bd 3c2f 763e
00000130: da4f 34bd 3d73 cfbe ba2c 3d3e 9907 cb3c
00000140: cc1f 123d ef11 32bd 2c53 df3e 349b 03be
00000150: 8999 903e 7e4d 14bd 4c92 7c3e 2eca 00bf
00000160: a8d4 273d 09ad 673d fa6e e13d 5aff 423c
00000170: 6ee7 313d 70f5 ebbe 0025 c13d 12fd cebb
00000180: 6ebd cabd f68d a13d 6333 53bc 5225 42bd
00000190: fbdf 8ebb 8b02 a4bd f88c a73d b1f4 b3bd
000001a0: 488e 4f3e 78af 803e c1ec 5cbd 2c46 583d
000001b0: 4201 4a3d 388b 5f3e 6d68 6fbd a856 7bbd
000001c0: f89e 72bd e27d dfbd ddce d0bd 9b3c 61bc
000001d0: 2b7f 8e3d f893 533e 26a7 2abc 336b 643d
000001e0: f9e6 8e3c 989a 5abe bab6 b83c ecd1 55be
000001f0: fe5e a9bd 18c9 5c3c 6a14 ac3d f539 0bbe
00000200: bb38 29bd 6654 1c3c 82ce d9be 74fb f63c
00000210: dbab 9a3d ca40 45bd 7e16 ca3e f221 14bb
00000220: d5cf 8d3d 60e9 0f3e f980 463e 99bc 7dbe
00000230: 4906 9b3d ed83 373d 2fa2 a83d fed0 00be
00000240: ae1f c43c 4624 50be 521f 17be 6810 55bd
00000250: 4041 81bd 2738 c03d 869d 85bd 39c9 5f3d
00000260: 1de9 bf3c ea6a 483c dc73 913e dddd 8c3c
00000270: 493a 80bd f3c5 d1bb a06e 453e 7230 203d
00000280: da34 a5bd c50f 863d 207d b5bd 4f99 703d
00000290: a367 c23e b47f bcbd c2bc c73d 027c 083e
000002a0: a8bd 1b3e 0f79 cc3c 90c8 0b3d ec0b 47bd
000002b0: aff3 b1be bacc 443d 8c22 423e a23a b93d
000002c0: d374 07be 0ed0 2abe b572 f7bb 089a 9e3d
000002d0: 5e6b c13b 08f0 ddbd 84bb ecbd 2428 0a3e
000002e0: 76d1 143e 4938 763e 2efb e6bd 39e0 d2be
000002f0: 8cf0 4fbe 1e62 84bd eb06 173f 6939 773d
00000300: 0148 ac3c 06be 5dbd 4e6b 8bbe 872f cb3d
00000310: 25f1 873c 36b3 993d efd4 11be 5615 db3d
00000320: f849 57bd 9e84 b63b 7aae 8e3e 315b ee3d
00000330: eac5 19bd f5d9 103e bb60 a13c bf0e ddbd
00000340: 71a0 3d3e 1a40 4b3b 56a8 a6bd f26f 363d
00000350: 9dd7 623d 499a a3bd 4759 9a3d 3e1a a3bd
00000360: 1ec9 093e 36a7 38bd ddca 8f3d ce67 2dbc
00000370: c5c8 943c 7b70 ea3e 86cd b7bb 1ba1 dabc
00000380: c34e 41be f250 babb 5c2c 033e ac9b 733d
00000390: 9659 91bd 8638 f3bc a05c a8ba 8b71 a53d
000003a0: db78 1a3d b438 e7bd a410 f8bd 9863 883d
000003b0: ac5f 1f3e d83b 8ebe 0a18 e4bc cd88 c6bd
000003c0: 4c09 9a3d 19a1 893d 3c54 15be 6933 923d
000003d0: 2237 3c3e 98c1 bebd 8e88 aa3d 3262 503d
000003e0: 27d4 80bd 5c04 b5be 97dd 363d 5e31 1dbd
000003f0: 2040 403d 5601 72bc 2278 793d 9719 00be
-0.007637393 -0.06869009 -0.18193656 0.011299276 -0.032651857 0.016731042 -0.2122715 0.04668075
-0.035746388 0.0100267185 0.0683053 -0.21146649 -0.057899877 -0.031841997 -0.06268698 -0.10250819
0.047202885 0.13261566 -0.21208355 -0.02094842 -0.098780334 -0.06730881 0.059497766 -0.03409914
0.002120043 -0.08170397 -0.13410072 0.20924866 -0.16227767 0.07482035 0.04643445 0.078308165
0.30710474 -0.06630235 -0.26991552 0.036527734 -0.30900094 0.050499726 0.05637794 0.14974532
-0.11101734 -0.071090564 -0.085458264 0.17729582 0.12632692 -0.039480776 -0.26436937 0.034096662
0.10540726 -0.034297504 -0.25271165 -0.07412604 -0.003179238 0.08507472 0.112956844 -0.31357262
0.19599248 -0.056416582 -0.110820435 0.18854249 -0.12180747 0.07317333 -0.17747821 -0.006011398
-0.04395165 -0.08235814 0.06855738 0.14232853 -0.07101408 0.36680433 -0.005523782 -0.09101138
-0.10743821 -0.030826973 -0.09510899 0.24041456 -0.044021465 -0.40517607 0.18474093 0.024783896
0.035674855 -0.043474134 0.43618143 -0.12852174 0.28242138 -0.036206715 0.24665183 -0.503085
0.04097429 0.056561504 0.11007495 0.011901701 0.0434336 -0.4608569 0.09430885 -0.0063167894
-0.09899412 0.07888405 -0.0128906695 -0.047398873 -0.0043601966 -0.080082975 0.081811845 -0.087869056
0.2026912 0.25133872 -0.053936724 0.052801296 0.049317606 0.21830451 -0.058449198 -0.06136194
-0.059233636 -0.10912682 -0.10195706 -0.01374736 0.06957849 0.20661914 -0.010415828 0.055766296
0.01744412 -0.21348035 0.022548068 -0.2088086 -0.082700714 0.013475679 0.08402331 -0.13596328
-0.041313868 0.0095416065 -0.42540365 0.030149199 0.0755231 -0.04815749 0.39470285 -0.002260324
0.069244064 0.14053869 0.19385137 -0.24778976 0.07569558 0.04480355 0.08234059 -0.12579724
0.023940887 -0.20326337 -0.14758042 -0.0520176 -0.063112736 0.0938571 -0.06524186 0.05463526
0.023426587 0.012232522 0.28408706 0.017195636 -0.06261117 -0.006401771 0.19280481 0.0391087
-0.08066721 0.065459765 -0.08861756 0.058739956 0.37969694 -0.09204045 0.097527996 0.13328555
0.15209067 0.024960069 0.03412682 -0.048595354 -0.34756228 0.048046805 0.18958491 0.090443864
-0.13228159 -0.16680929 -0.007551516 0.07744223 0.0059026917 -0.10836798 -0.11559203 0.13491875
0.14533028 0.24044909 -0.112783775 -0.41186693 -0.20306605 -0.06464027 0.5899493 0.060357485
0.021030428 -0.0541363 -0.27230304 0.099211745 0.016594479 0.07504885 -0.14241384 0.10697429
-0.052560776 0.0055700084 0.2786749 0.11638487 -0.03754226 0.14145644 0.019699445 -0.10793828
0.18518235 0.003101355 -0.08137576 0.044540353 0.055381406 -0.07988412 0.075365596 -0.0796399
0.13455626 -0.04508134 0.07021115 -0.010583831 0.01816214 0.4578894 -0.005609217 -0.02668815
-0.18877701 -0.005685919 0.1280989 0.059474632 -0.07097165 -0.029690038 -0.0012844987 0.08078297
0.037712913 -0.11290112 -0.12112549 0.06659621 0.1556384 -0.27780032 -0.027843494 -0.096940614
0.075213045 0.0672018 -0.14582914 0.07138712 0.18380406 -0.09314269 0.08326827 0.050874896
-0.06290465 -0.35354888 0.04464492 -0.03837716 0.046936154 -0.014770826 0.060905583 -0.12509762

fc2.bias f4 [64]
00000000: 2481 d0bc 49ad 13be 7f78 55be 9fea e6bd
00000010: c4d0 97be 7492 aebe 3f39 093e e6fe d23e
00000020: 5d43 fd3d 9924 3d3e 440e ddbd b8df 6a3d
00000030: 4977 f7bd e3b0 2abe 7a71 903e 1ab5 4a3c
00000040: 41e1 343e 9ecd ab3e 373f 60bd b0a4 853e
00000050: eff8 c83e b3ad f13d 5cab 1e3d 23d6 9abe
00000060: 2d26 29bd c91e 72bd e122 063e 3917 18be
00000070: 9e58 403e 87e3 ddbd c960 28bd 156b 803e
00000080: cadc 8e3d 593d 62bd 6016 a2bc 970f 2fbe
00000090: bdf4 43be e7b4 9dbe 3bc0 46be 5348 133e
000000a0: 17c1 cbbd 2c00 6e3e a11e 1abe 98f6 4d3e
000000b0: 3521 03bf 03fa a93e e77e 6abe 5099 22bd
000000c0: df65 953d 618b f63c 4b17 8b3b 59c4 70be
000000d0: 3f63 253e 943b 393e 1721 04be ef95 553c
000000e0: ce4b f9bd 0bad 7ebd cbdc a43e fc32 743c
000000f0: f1c4 f53d c6a6 aa3e 8b0e 60bd b4d2 27be
-0.025452204 -0.14421572 -0.20846747 -0.11275219 -0.29651463 -0.3409611 0.13400744 0.41210097
0.12366364 0.18470992 -0.107937366 0.05734226 -0.12083299 -0.1666904 0.28211576 0.01237228
0.17664053 0.3355531 -0.054747786 0.2610221 0.3925242 0.118007086 0.03873764 -0.30241498
-0.041296173 -0.05911139 0.13099243 -0.14852609 0.18783805 -0.10834413 -0.041107927 0.25081697
0.06975706 -0.055234287 -0.01978606 -0.17095791 -0.19136329 -0.3080208 -0.19409268 0.14383058
-0.09948938 0.23242253 -0.15050747 0.201136 -0.51222545 0.33198556 -0.22899972 -0.03969699
0.07294821 0.030095758 0.00424472 -0.235124 0.1615114 0.18089134 -0.12903248 0.013036235
-0.12172662 -0.062176745 0.32199702 0.014904734 0.12000454 0.33330363 -0.05470137 -0.1638897

fc3.weight f4 [10, 64]
00000000: f7b5 32be 86ae 223e 9a00 883e b5a5 64be
00000010: e6d4 b6bc 3c3b 1fbe 7f71 f03c 9fc6 013e
00000020: e24c 44bd 6b67 33be 4e51 86be ebe6 13bf
00000030: e070 17be 08d6 163e 2453 13be 0a8b 8c3d
00000040: 3a57 aa3d 3120 303e 5427 0ebe 4382 a2be
00000050: d834 4fbd 0176 94be 45de 37bf 7c17 a33c
00000060: 666c 823e 15d2 bdbe 42ed 2cbe c632 cbbe
00000070: e45f fdbe c0c8 e7bd 03de 16be c66d 08be
00000080: 6d54 46be e75a a8be 8932 a3be 35e9 243e
00000090: cb55 b0bd 2167 8fbe cae6 df3c 9c71 64be
000000a0: 0fd6 b3bd d18e 4c3e 093f afbe 53da 0f3e
000000b0: 8284 993d 5f42 903d a4fe b0be 8745 46be
000000c0: 99d8 42be 1664 c83d a2a0 fa3d 9318 f23d
000000d0: a325 7c3e a44b 263d 809b e9bd 378b 08bd
000000e0: 19fd 8e3e 3a4a 403e 561b 7fbe 679a 7dbd
000000f0: f59b 83be af11 163e a1b6 d43d 3878 debd
00000100: cccd 03be e17e 3fbe 007d 643e 32de fd3d
00000110: 90b4 633d fa23 7d3c 6b3f 4dbe 035c f73d
00000120: 287c e7bd 0aa5 b73d 0d1a 13be 7b41 21be
00000130: 549b a63d 11d9 793b 0773 d83d 7573 153d
00000140: 5c03 38be dbe9 583e 7825 d33d 7c83 78be
00000150: 10be eb3d 922f 133d d85a 013e 905b c73d
00000160: f649 c7bd a2a8 94be 67e8 28be 8253 c7bd
00000170: e2f0 883c 18c2 153d 783b 92be 0b97 cabe
00000180: de43 4a3e 3401 0c3e c99e f33d c278 2f3d
00000190: 32fb 693e f91d 483d f289 4f3e 0295 0abe
000001a0: 8300 833d 1516 923d c914 383e 0ce2 d8be
000001b0: 2280 2c3e ad4f 0cbe 3735 d63d 9c2d 8abe
000001c0: a8c9 47be cb93 4d3d b62e af3d a8da b5be
000001d0: 3021 eebe 845c 9abe 8832 143e d64f c0be
000001e0: 17f4 0cbf d204 02be 9664 2dbd d3c5 b8bd
000001f0: 8bfe b4be 9925 aabe 83a1 b93d ccd5 703e
00000200: cb7a 6f3e 1a4f bcbd b7a5 383d 6fe0 f73d
00000210: 6550 823e 9d2e b93d 2309 4cbe b268 0ebe
00000220: 911e 55bc 9c3e fe3d 09a3 e33b 2711 0cbf
00000230: 4a62 1a3d 4ed9 39bb 1acd 10bd 14a5 9c3c
00000240: 3b49 1b3e 9b39 ecbe e3c4 4cbe 6f61 2dbd
00000250: fac7 6838 d87b 303e 39b1 9ebe ebc4 0a3e
00000260: f0c2 0e3e 8e87 b1bd 652b 383e 1d76 713d
00000270: f32b f23d bdf4 8bbd 1402 6bbd f0db 26bf
00000280: b668 af3d 6517 23be 19dd e0be 9570 6f3d
00000290: 1e19 2d3e d3d2 373e 991e 2dbe 8a6e 443e
000002a0: 2e8a aebc 263b d73d 4655 48be f487 3abd
000002b0: d673 29bb 0868 df3d cbde 373e ca75 09be
000002c0: 8175 4d3d d53a 553c c2c4 f73b 9c69 883e
000002d0: e5cd d33d be54 11be 922a 93be 0aaa 793e
000002e0: 9957 04be a63c 4fbe be43 fcbe 4414 f6bc
000002f0: cdc8 97be 27e6 3d3d 195c 69bd facd 12be
00000300: bf34 0d3e c7a5 10be 9b99 803d b93b 193e
00000310: 101d 803d e933 bc3d e2eb e1bd ed9e 003e
00000320: ca33 ea3d 7d82 173e ec71 73bd 3e2b 2d3d
00000330: 483b f1bd 73c0 b0bd 896b 48be 0a81 f0bc
00000340: 7f40 b03d bfe5 38be ba3e a3be d474 82be
00000350: 9f52 2c3c ed46 b43d 0158 1a3e da63 c7bd
00000360: 0a74 60be 31ef 5cbe eb2a ebbe 03f2 2e3e
00000370: ea6b 373e 6727 efbd c22a a63e af37 823e
00000380: 7131 3abf 2a51 193b f852 c3be 2ca9 0b3e
00000390: 7dc7 87be 75d2 f7bb 7a28 bebc ddbd b73d
000003a0: b05a 29bc 4d25 7cbe bad5 b3bd b32a a3be
000003b0: a37e 5a3d a0bf 62be ec7f ca3c b40a 803e
000003c0: 2d1c 033e ca10 893d fba7 d7be 9cb1 0b3e
000003d0: 38b9 9a3d 6c55 a73d 1b2b a9be 1fd7 6fbd
000003e0: ba0c 8ebd f9c9 913d 4a73 19be 6bb1 25ba
000003f0: bc55 c63d 84f0 173e 5a1e a23d ff70 b4be
-0.17452227 0.15886888 0.2656296 -0.22328837 -0.022318315 -0.1554994 0.029350994 0.12673424
-0.047924884 -0.1751992 -0.26233906 -0.5777423 -0.14789152 0.14730084 -0.14387184 0.06862457
0.083174184 0.1719978 -0.1388219 -0.31740007 -0.050587505 -0.2899628 -0.7182353 0.01990866
0.25473326 -0.37074342 -0.16887382 -0.39687175 -0.4948722 -0.11317587 -0.14733128 -0.13323125
-0.19368143 -0.32881853 -0.31874493 0.16104586 -0.08610114 -0.2800837 0.027331728 -0.22308964
-0.08781063 0.19976355 -0.3422778 0.14048128 0.07495977 0.07043909 -0.34569275 -0.1936246
-0.19027938 0.09784715 0.122376695 0.118210934 0.24623732 0.04059948 -0.114066124 -0.03333589
0.27927473 0.18778315 -0.24912772 -0.061914828 -0.25704923 0.14655183 0.10386396 -0.10862774
-0.12871474 -0.18700744 0.22313309 0.12395896 0.05559212 0.015450472 -0.20043723 0.12078097
-0.11302978 0.089670256 -0.14365406 -0.15747635 0.08135095 0.0038123766 0.10568815 0.03648706
-0.17970031 0.21182959 0.10309881 -0.24268907 0.11510861 0.03593404 0.1263231 0.09734261
-0.09730904 -0.29034907 -0.16494904 -0.09732725 0.016716424 0.036562055 -0.28560996 -0.39568362
0.19752452 0.13672334 0.1189552 0.042839773 0.2284973 0.04885671 0.20267466 -0.13533404
0.06396582 0.07133118 0.17976679 -0.4235996 0.16845754 -0.13702269 0.10459369 -0.26987922
-0.1951052 0.050189774 0.08553831 -0.35518384 -0.46509695 -0.3014871 0.14472401 -0.3756091
-0.5505995 -0.12697151 -0.042332254 -0.09022107 -0.3535045 -0.3323181 0.09064009 0.23519057
0.23386686 -0.09194775 0.045079913 0.12103354 0.2545196 0.09042094 -0.1992536 -0.13907126
-0.013007776 0.124142855 0.0069469255 -0.5471367 0.037691392 -0.0028358283 -0.03535185 0.019121684
0.15164654 -0.461377 -0.19996981 -0.042329248 5.5499353e-05 0.17234743 -0.30994585 0.1355168
0.1394155 -0.08668433 0.17985304 0.058950532 0.11824789 -0.068337895 -0.05737503 -0.6517935
0.08564894 -0.15926893 -0.43918684 0.058456976 0.16904113 0.17951517 -0.16906203 0.19182792
-0.021306124 0.105093285 -0.19563779 -0.04553981 -0.0025856397 0.10908514 0.17956083 -0.13423839
0.05016089 0.013014515 0.007561297 0.26643074 0.10342006 -0.14192483 -0.28743416 0.24381271
-0.12924041 -0.2023798 -0.49270433 -0.03003896 -0.29645386 0.04636207 -0.056972597 -0.14336386
0.13789652 -0.14125739 0.06279298 0.14964189 0.06255543 0.091895886 -0.11031319 0.12560625
0.11435659 0.14795871 -0.059434816 0.042277567 -0.11778885 -0.08630457 -0.19572271 -0.029358406
0.08606052 -0.18056391 -0.31883794 -0.25479758 0.010517745 0.088025905 0.15072633 -0.09735842
-0.21919265 -0.2157562 -0.4593118 0.17084508 0.1791226 -0.11677437 0.32454497 0.25433108
-0.7273169 0.0023394325 -0.38149238 0.13638753 -0.26519385 -0.00756293 -0.02321266 0.089717604
-0.010336563 -0.24623604 -0.087809995 -0.31868514 0.053343426 -0.22143412 0.024719201 0.25008166
0.12803717 0.066926554 -0.42120346 0.13641971 0.07554859 0.0817059 -0.330407 -0.058554765
-0.06936021 0.07118601 -0.14985386 -0.0006320688 0.09684321 0.14837843 0.07915945 -0.3524246

fc3.bias f4 [10]
00000000: 1f43 3ebc 3a57 80be 43dc a1bd e197 e3bd
00000010: 6248 113e ffb5 77be 2a87 ac3c 8328 2bbe
00000020: 6962 0d3f 00ed 403d
-0.011612683 -0.2506655 -0.0790334 -0.11112953 0.14187768 -0.2419052 0.021060545 -0.16714673
0.55228287 0.04710102
